localmodel/output/domain_classifier_cnn/model.pt (torch, 93099 bytes, 9 tensors)

embedding.weight f4 [50, 32]
0	0xbfcc2829	-1.5949756
1	0xbf95052a	-1.1642201
2	0xbfe3c658	-1.7794905
3	0x3fc3c6be	1.5295026
4	0xbea07802	-0.3134156
5	0x3e18f11e	0.14935729
6	0x3e4cb936	0.19992527
7	0x3f9037ca	1.1267025
8	0xbff64304	-1.9239202
9	0x3f1d84e9	0.6153093
10	0x3f977ba5	1.1834608
11	0x3fe82251	1.8135473
12	0xbfa5180f	-1.2897967
13	0xbd9a2637	-0.0752682
14	0xbf678280	-0.904335
15	0xbf1289a4	-0.5724127
16	0x3fcd5f4a	1.6044705
17	0x3f10efd4	0.5661595
18	0xbf108f75	-0.564689
19	0xbedd2ce8	-0.43198323
20	0x3fa63fe4	1.2988248
21	0xbe5490b5	-0.20758326
22	0x3f269cce	0.65083015
23	0x3fdfb0e3	1.7475857
24	0x3e5bb59c	0.21455997
25	0x3ef0c8da	0.47028238
26	0x3f736b25	0.95085365
27	0xbf0667e7	-0.5250229
28	0xbfb5b36f	-1.4195384
29	0xbec13d04	-0.37741864
30	0xbf8227b2	-1.0168364
31	0x3d246415	0.04013451
32	0x40178588	2.367525
33	0xbeab760a	-0.33488494
34	0xbfc280e6	-1.5195587
35	0x3e6dadd3	0.2321084
36	0x3ffedbea	1.9910862
37	0x3e8223aa	0.25417835
38	0x3ff19ab3	1.8875335
39	0xbfa8a773	-1.3176101
40	0x3f53edac	0.82784534
41	0x3f9862e9	1.1905185
42	0x3fe68ae1	1.8011132
43	0x3f1276ad	0.57212335
44	0x3f8d3e56	1.1034648
45	0x3edf63a7	0.43630716
46	0x3cd02d66	0.025412273
47	0x3fcc516e	1.596235
48	0x40050917	2.0786798
49	0xbe850ff0	-0.25988722
50	0x3f365f95	0.71239597
51	0xbec5130a	-0.38491088
52	0x3ece9249	0.40345982
53	0xbe14cb53	-0.14530687
54	0xbf30f16f	-0.691184
55	0xbf0565ed	-0.5210865
56	0xbe45a3f0	-0.19300818
57	0xbf1df903	-0.61708087
58	0xbfe37227	-1.7769212
59	0x3eaad56c	0.33365953
60	0x3f9ad821	1.2097207
61	0x3d82801a	0.0637209
62	0x3eeab6ea	0.45842677
63	0xbeb4d6d6	-0.35320157
64	0x3fa263de	1.2686727
65	0xbe80c347	-0.25148985
66	0x3ec9a43b	0.3938311
67	0xbfb6f7bd	-1.4294354
68	0x3e4a8fea	0.19781461
69	0xbd919b6d	-0.07109723
70	0xbf06ffd9	-0.5273414
71	0x3fd7ec81	1.686905
72	0x3eb33be2	0.35006624
73	0xbf89a7be	-1.0754316
74	0xbf41d0bc	-0.7570913
75	0xbf186fa3	-0.59545344
76	0xbf7765cf	-0.9663972
77	0x3e9516a1	0.29118827
78	0x3e4dbb3c	0.20090955
79	0xbf9d94e9	-1.2311069
80	0x3ea8d9c7	0.3297865
81	0x3f34fb94	0.7069638
82	0xbde502d8	-0.11182183
83	0x3f9c9060	1.223156
84	0xbf5eb62c	-0.8699672
85	0xbde58336	-0.11206667
86	0xbfb52c74	-1.4154191
87	0x3e88c5a3	0.26713285
88	0xbfa1d6f3	-1.2643722
89	0x3f1ac961	0.6046353
90	0xbd93cc6d	-0.072167255
91	0x3f0a2849	0.5396772
92	0x3ee9ee59	0.45689657
93	0x3f680c2e	0.90643585
94	0xbdf1a3fc	-0.11798856
95	0xbf42a38c	-0.760308
96	0xbecc10f0	-0.39856672
97	0x3f3738da	0.71571124
98	0xbfeee508	-1.8663645
99	0x3e99ad94	0.30015242
100	0x3d64f69a	0.05589924
101	0x3f50558d	0.8138054
102	0x3f2615fd	0.648773
103	0xbf2c4197	-0.6728758
104	0x3e2af93e	0.16696641
105	0xbf9099a2	-1.1296885
106	0x3f2f9cd5	0.6859868
107	0x3f637bf8	0.88861036
108	0x3f09c6b8	0.53818846
109	0x3f5ed3ca	0.87041914
110	0x3f0a982b	0.5413844
111	0x3f9a0fe6	1.2036102
112	0xbfbbdf74	-1.4677567
113	0xbfd6b602	-1.6774294
114	0xbf3a38b7	-0.7274279
115	0x3e83aa04	0.2571565
116	0xbfa84baf	-1.3148097
117	0xbefb24b8	-0.49051452
118	0xbfa35291	-1.2759572
119	0xbf7bf20d	-0.98416215
120	0xbd718b60	-0.05897081
121	0xbf03dbbb	-0.5150716
122	0xbf897961	-1.0740167
123	0xbe72416f	-0.23657773
124	0x3f24fb60	0.6444607
125	0xbf6c3b50	-0.92278004
126	0x3eeb4f27	0.45958826
127	0x3e971b3b	0.29512963
128	0xbf79c576	-0.97566926
129	0xbf16877f	-0.588005
130	0xbf958ca7	-1.1683549
131	0xbfa871e3	-1.3159755
132	0xbcf42dda	-0.02980702
133	0x3f027dfc	0.50973487
134	0x3fcc4f40	1.5961685
135	0xbf754171	-0.9580298
136	0xbf0fb13f	-0.5612983
137	0xbf854c8b	-1.0413984
138	0x3ffe3d1d	1.98624
139	0xbf253071	-0.6452704
140	0x3f780537	0.9688296
141	0xbdd07be7	-0.101798825
142	0x3f378e51	0.7170153
143	0xbf8cfc84	-1.1014562
144	0xbf8af68a	-1.0856488
145	0x3f69e5e6	0.9136642
146	0xbeae0fe2	-0.33996493
147	0x3eca9acd	0.3957123
148	0xbf45317c	-0.7702863
149	0x3f7d598b	0.98964757
150	0xbf814edb	-1.010219
151	0x3f0a12a9	0.53934723
152	0x3e1036ff	0.1408348
153	0xbf917ca7	-1.1366166
154	0x3e511646	0.20418653
155	0x3f71bb69	0.9442659
156	0x3f0128d1	0.50452906
157	0xbfafd98d	-1.3738266
158	0xbee12396	-0.43972462
159	0x3ea2f7bd	0.31829634
160	0x3f9048d5	1.1272227
161	0xc00b898c	-2.1802702
162	0x3f1d1cde	0.6137217
163	0x3ec72c01	0.3890076
164	0xbf004216	-0.5010084
165	0xbfb941b8	-1.4473181
166	0x3f32ded0	0.69871235
167	0xbfcab3b0	-1.5836086
168	0xbdda9b1d	-0.10674117
169	0xbe9ed012	-0.3101812
170	0x3fc89199	1.5669433
171	0xbd2e5b02	-0.04256726
172	0x3f0e3973	0.5555641
173	0xbf605a8f	-0.8763818
174	0xbeb8b28c	-0.3607372
175	0x3f1079a4	0.5643561
176	0xbf8ea2a5	-1.1143385
177	0xbf67e3a1	-0.9058171
178	0x4025d0dd	2.590873
179	0x3fce6c4a	1.6126797
180	0x3edd238c	0.43191183
181	0xbf2b123b	-0.6682469
182	0x3f93babd	1.1541363
183	0x3f959d56	1.168864
184	0x3eb3fee7	0.35155413
185	0x3eafd7dc	0.34344375
186	0x3f2b23c2	0.6685144
187	0x3db2e097	0.08734243
188	0xbf02a7db	-0.5103738
189	0x3fb50ddb	1.4144853
190	0x3eabb600	0.33537292
191	0xbf31d1fb	-0.6946103
192	0xbe76e918	-0.24112356
193	0x3f9368bf	1.1516341
194	0xbec74a34	-0.389238
195	0x402c9fb0	2.6972466
196	0xbf19e101	-0.60108954
197	0xbd0729a8	-0.03299871
198	0xbfdbe42d	-1.7179009
199	0x3fa48a9c	1.28548
200	0x3e9613a0	0.29311848
201	0xbf096430	-0.536685
202	0x3ff80e58	1.9379377
203	0xbe9393c9	-0.2882369
204	0x3f7cdc5f	0.9877376
205	0xbfb2c48f	-1.3966235
206	0x3fc88300	1.5664978
207	0xbd925234	-0.07144585
208	0xbf7cb3ab	-0.9871165
209	0x3c598a82	0.013277652
210	0x4016ccb5	2.3562443
211	0x3f132ce7	0.5749039
212	0xbff81d13	-1.9383873
213	0x3f8b92e5	1.0904204
214	0x3e600576	0.21877083
215	0x3fe76cc0	1.8080063
216	0xbf53a700	-0.82676697
217	0x3e9f6f8d	0.31139794
218	0xbe832985	-0.25617614
219	0xbf864564	-1.0489926
220	0x3f9eb541	1.2399064
221	0xbff26b40	-1.893898
222	0xbf60c82e	-0.8780545
223	0x3eef98f2	0.46796376
224	0x3eac89b1	0.336988
225	0xbf28b24d	-0.65897065
226	0xbefe62e8	-0.49684834
227	0xc03496cb	-2.8217037
228	0x3e858e04	0.26084912
229	0x3fd80b85	1.6878515
230	0x3e546712	0.20742443
231	0x3f2c53d2	0.673154
232	0xbf80f9be	-1.0076215
233	0x3f6973cf	0.91192335
234	0x3decb0aa	0.115571335
235	0xbef89a6d	-0.48555318
236	0x3eca81dc	0.395522
237	0x3ea79f0a	0.32738525
238	0x3f7bf168	0.9841523
239	0xbfe894be	-1.8170393
240	0x3fbf0cf4	1.4925828
241	0x3f3a9297	0.7287993
242	0x3f7edafd	0.995529
243	0x3f0856de	0.5325755
244	0xbf26dff4	-0.65185475
245	0x3f8c55d6	1.0963695
246	0x3f965294	1.1743951
247	0x3f0b0b2b	0.54313916
248	0xbfe170b2	-1.7612517
249	0xbe4aafd3	-0.19793634
250	0x3eeb73a1	0.45986655
251	0xbf5ef890	-0.87098026
252	0x3ed3f9cf	0.41401526
253	0x3f83763f	1.0270461
254	0x3e584909	0.2112161
255	0x3fb9f26c	1.4527106

conv1.weight f4 [64, 32, 3]
0	0x3d053222	0.032518514
1	0xbd08af7f	-0.03337049
2	0x3c929ffa	0.017898548
3	0x3da613c5	0.081092395
4	0xbd5c1937	-0.053734984
5	0xbdebe61d	-0.115185
6	0x3c300610	0.010743633
7	0xbd27fbc8	-0.0410116
8	0xbe0d8da6	-0.13823566
9	0xbd00872b	-0.031378906
10	0xbca445ac	-0.020052753
11	0x3d5a11de	0.053239696
12	0xba96996c	-0.0011489815
13	0x3e05c7b6	0.13064465
14	0xbd9deae0	-0.077108145
15	0x3c783eb3	0.015151667
16	0xbcf6ee4e	-0.03014293
17	0xbd33bc84	-0.043880954
18	0xbde9c1d0	-0.1141392
19	0xbe15dd3d	-0.14635177
20	0x3a3a0840	0.0007096566
21	0xbd116f19	-0.03550634
22	0x3d43035a	0.04761062
23	0x3dc4d2eb	0.09610542
24	0xbdb24024	-0.0870364
25	0x3cc33250	0.023827702
26	0xbd9d288f	-0.076737516
27	0x3db14748	0.08656174
28	0x3d884039	0.066528745
29	0xbdbe98f7	-0.093065195
30	0x3c30d2ac	0.010792416
31	0x3db5b528	0.088724434
32	0xbc0491f5	-0.0080914395
33	0xbdb655d7	-0.089030914
34	0x3db4bc40	0.08824968
35	0xbd739a34	-0.05947323
36	0x3c337179	0.010952347
37	0x3dc42426	0.09577207
38	0xbc7ec7b7	-0.015550545
39	0xbd15a18c	-0.036531016
40	0xbe025456	-0.12727484
41	0xbd184a5b	-0.037180286
42	0x3dd6ca80	0.104878426
43	0xbc895697	-0.016764922
44	0xbd2225a4	-0.03958668
45	0xbdeaecc9	-0.114709444
46	0xbd001505	-0.031270046
47	0xbb8a65aa	-0.004223545
48	0x3e04a572	0.12953737
49	0xbe14dc09	-0.14537062
50	0xbd1af5df	-0.037832137
51	0x3dacd471	0.084389575
52	0xbd9966c9	-0.07490308
53	0x3e076961	0.13223793
54	0xbd5636e2	-0.052298434
55	0x3dd8e531	0.1059059
56	0x3c748ae5	0.014925693
57	0x3bcea41d	0.006306185
58	0xbc8b75b9	-0.017023908
59	0x3d87e0d4	0.066346794
60	0x3b160227	0.0022889466
61	0x3c5cdd02	0.013480427
62	0xbca5529e	-0.020180997
63	0xbda90ef4	-0.08254805
64	0x3dfcd0ba	0.12344499
65	0x3d45b455	0.04826768
66	0x3cf0ccd5	0.029394547
67	0xbdce1f6a	-0.100645855
68	0xbbe44622	-0.0069663683
69	0xbce7e6ea	-0.02830835
70	0x3dafe284	0.08588126
71	0x3d17d613	0.03706939
72	0x3d998c78	0.074974954
73	0xbdd9025e	-0.10596155
74	0xbd5ad7f8	-0.05342862
75	0xbc3b6a53	-0.011438924
76	0xbc2698a6	-0.01016823
77	0xbd582b22	-0.05277551
78	0xbc32f6e1	-0.010923118
79	0x3e171a68	0.14756167
80	0xbd798946	-0.06092193
81	0x3d80e15d	0.06292985
82	0xbdd41c3d	-0.103569485
83	0xbd329e3e	-0.043607943
84	0xbd239907	-0.03994086
85	0x3dcf678c	0.10127172
86	0x3dfa5550	0.12223303
87	0xbd081848	-0.03322628
88	0xbe0c4e18	-0.13701665
89	0xbdaa3855	-0.08311526
90	0x3d802995	0.06257931
91	0xbe139a2c	-0.1441428
92	0xba1ee428	-0.00060612196
93	0xbe35b1b4	-0.1774357
94	0xbcd36d6e	-0.025809016
95	0x3d0288ed	0.031868864
96	0x3d6d931c	0.058001623
97	0x3dfbe10e	0.12298785
98	0xbdee291a	-0.11628933
99	0xbdf0c6ed	-0.11756692
100	0xbdcfa62d	-0.101391174
101	0xbbdb5a87	-0.0066941413
102	0xbd80c6f0	-0.06287944
103	0x3bded5fb	0.006800411
104	0x3cc7c8db	0.024387768
105	0x3bc27400	0.0059342384
106	0x3d93fa0d	0.07225428
107	0x3cbc1659	0.022959875
108	0xbbc9490b	-0.0061427406
109	0xbd0ec0b2	-0.034851737
110	0x3d2d62ee	0.042330675
111	0x3de573e8	0.11203748
112	0xba8a8e20	-0.0010570921
113	0x3daf90aa	0.08572514
114	0x3db69099	0.089142986
115	0x3de58e7b	0.112088166
116	0x3cd601ba	0.02612387
117	0x3d033081	0.03202868
118	0xbddafeb7	-0.10693114
119	0xbdfdfaf1	-0.12401379
120	0xbbfaad08	-0.0076500215
121	0x3d1c2e49	0.03813008
122	0xbd03c451	-0.032169644
123	0xbd4f1e7b	-0.050566178
124	0x3db72ee5	0.08944491
125	0x3de08734	0.10963288
126	0xbe0bfdb0	-0.13670993
127	0x3cdf19cd	0.027233982
128	0x3d67eefe	0.056624405
129	0x3cc7f3af	0.02440819
130	0x3d89f136	0.067354605
131	0x3cf008f6	0.029301148
132	0x3d73d771	0.059531633
133	0xbdcad59f	-0.09904026
134	0x3e0af179	0.13568677
135	0x3bcab7d9	0.006186467
136	0x3d7b7ce1	0.06139839
137	0xbce36c4b	-0.027761599
138	0xbc4c8cc9	-0.012484738
139	0xbd9009e8	-0.070331395
140	0x3dd133a7	0.1021493
141	0xbc61eb1f	-0.013788967
142	0xbda55874	-0.08073512
143	0xbd885931	-0.06657637
144	0xbdd67121	-0.104707964
145	0xbd73014e	-0.059327416
146	0xbd9e6f9d	-0.07736132
147	0xbce3dc69	-0.02781506
148	0xbd25959b	-0.040425878
149	0xbc0840b0	-0.008316204
150	0xbe095e8c	-0.13414973
151	0x38966fb4	7.173364e-05
152	0x3c796da2	0.015223892
153	0xbe16504f	-0.14679073
154	0x3dd7ad64	0.105311185
155	0xbe05b835	-0.1305855
156	0x3d2757e0	0.04085529
157	0x3e0ba540	0.13637257
158	0x3d1ba531	0.037999336
159	0x3b0e640f	0.002172712
160	0xbdb097f0	-0.0862273
161	0x3d088248	0.03332737
162	0xbd84cafa	-0.06484027
163	0x3deb5309	0.11490447
164	0x3cea1587	0.028574718
165	0xbcb78fe9	-0.022407489
166	0xbc45b6e5	-0.012067531
167	0x3cdb1be8	0.026746705
168	0x3cf6b886	0.030117285
169	0xbd19c3ef	-0.037540372
170	0x3dca156b	0.098673664
171	0x3dc1b331	0.09458006
172	0xbd9912d3	-0.074742936
173	0x3e2393a5	0.1597429
174	0xbc9552bb	-0.018227926
175	0x3cb503bb	0.022096505
176	0x3daef9c6	0.08543734
177	0x3daa2886	0.083085105
178	0x3c45b502	0.012067081
179	0xbb9bffaa	-0.004760702
180	0x3cbb1b33	0.022840118
181	0x3d50333a	0.050830103
182	0xbd0af4b8	-0.03392479
183	0x3dbdd53b	0.09269186
184	0xbd1360bd	-0.03598093
185	0xbd9d71c0	-0.07687712
186	0xbd5d4389	-0.054019485
187	0x3d46e777	0.048560586
188	0x3ce75328	0.028237894
189	0x3c3d5976	0.011556974
190	0xbdb5ac21	-0.088707216
191	0xbe446f22	-0.19183019
192	0x3d339ff3	0.04385371
193	0xbe2a0378	-0.16602886
194	0xbdd21018	-0.10256976
195	0xbbadf517	-0.005308758
196	0xbd14a30d	-0.03628831
197	0x3d4c2eed	0.04984944
198	0xbe399b90	-0.18125749
199	0x3d278730	0.04090041
200	0x3c5b70c0	0.013393581
201	0xbddd923d	-0.10818908
202	0x3d4b572a	0.049643673
203	0x3d078177	0.03308245
204	0x3d6e54a8	0.058186203
205	0xbd86d727	-0.06584006
206	0x3d7e6d79	0.06211612
207	0x3d1d67f9	0.038429234
208	0x3dc52359	0.09625883
209	0x3e145422	0.14485219
210	0xbe37ac8e	-0.17936918
211	0x3d9e0a9b	0.077168666
212	0x3d53b445	0.05168559
213	0xbda220dd	-0.079164244
214	0xbbbf88ce	-0.005845166
215	0xb9feafc0	-0.000485776
216	0xbd4998a9	-0.049217854
217	0x3d32fb5c	0.043696746
218	0xbd320b91	-0.04346806
219	0xbc873ad0	-0.016507536
220	0x3e3128f0	0.17300773
221	0xbd57ddb8	-0.05270168
222	0xbcea7e3d	-0.028624648
223	0xbdc256ee	-0.09489237
224	0xbda6406f	-0.081177585
225	0xbd6495ee	-0.055807047
226	0x3e0799f4	0.13242322
227	0xbd9e1595	-0.0771896
228	0xbcf8aad3	-0.030354893
229	0xbd5cb40e	-0.05388265
230	0x3c184ba2	0.009295376
231	0x3caa4d0b	0.02078869
232	0x3d2fcf9d	0.042922605
233	0xbe02c563	-0.1277061
234	0x3dd4403c	0.10363814
235	0x3d1f8d51	0.03895313
236	0xbde5215b	-0.11188003
237	0x3df37951	0.11888374
238	0x3d8db7f4	0.06919852
239	0xbb4298fe	-0.0029693241
240	0x3dbfc841	0.09364367
241	0xbcf96fcc	-0.030448817
242	0xbcdddaff	-0.027081965
243	0xbcdf77c7	-0.027278794
244	0xbd0b63d2	-0.034030743
245	0xbd0ea2e5	-0.034823317
246	0xbc4e01cd	-0.0125736715
247	0xbdc443c6	-0.09583239
248	0xbd944f44	-0.07241681
249	0x3d11d931	0.03560752
250	0x3cc4002f	0.023925869
251	0xbd983681	-0.07432271
252	0xbddbe1e9	-0.10736448
253	0x3e050f34	0.12994081
254	0x3d1d19d2	0.038354702
255	0xbc494379	-0.012284153

conv1.bias f4 [64]
0	0xbd251aa6	-0.040308617
1	0xbce18653	-0.027529871
2	0xbd56a84a	-0.052406587
3	0x3c63ad21	0.013896258
4	0xbda6e78d	-0.081496336
5	0x3cbce265	0.023057172
6	0x3d8baa3a	0.068195775
7	0x3d8f5add	0.06999753
8	0x3d53519e	0.051591508
9	0xbda68382	-0.08130552
10	0x3cadc5dc	0.02121251
11	0x3d18d544	0.03731276
12	0x3cc6f804	0.024288185
13	0x3da22432	0.0791706
14	0x3d4ff357	0.050769176
15	0x3db4571c	0.08805677
16	0xbc98db53	-0.01865927
17	0xbdcbd1ae	-0.099521026
18	0x3d562385	0.052279968
19	0x3c893072	0.016746733
20	0x3cd5d045	0.026100287
21	0x3db9dc46	0.09075217
22	0xbd68c7ed	-0.05683129
23	0xbcb06c4e	-0.021536019
24	0x3d70c1c6	0.058778547
25	0x3c2524ae	0.010079546
26	0xbe1128fd	-0.14175792
27	0x3d94adbe	0.07259701
28	0x3da0c880	0.07850742
29	0x3d9b6872	0.07588281
30	0xbd33c837	-0.04389211
31	0x3c26cf67	0.0101812845
32	0x3c24b2e4	0.0100524165
33	0xbd1b0cbb	-0.037853938
34	0xbe023870	-0.12716842
35	0x3b8fdffb	0.004390714
36	0x3d790306	0.0607939
37	0xbd92047c	-0.071297616
38	0x3d5ae38f	0.053439673
39	0x3d09355d	0.033498157
40	0x3d2d8d04	0.04237081
41	0xbdc2a8f6	-0.09504883
42	0x3a575983	0.00082149374
43	0xbccda826	-0.025104593
44	0x3dbb34f9	0.09140963
45	0x3d15ef18	0.03660497
46	0x3bf96ded	0.007611981
47	0xbd41887f	-0.047249313
48	0xbd9e1968	-0.077196896
49	0xb9dddfa4	-0.0004231903
50	0xbd0939f2	-0.033502527
51	0x3b409c03	0.0029389865
52	0xbbf4f9d0	-0.007476069
53	0xbd8173d7	-0.06320923
54	0xbd109abe	-0.035303824
55	0x3d56d3d0	0.052448094
56	0x3c3740cf	0.011184885
57	0xbdaeb087	-0.08529764
58	0x3d5bf10a	0.05369667
59	0xbd0e23b8	-0.034702033
60	0xba6fec3d	-0.0009152329
61	0xbbe85bfd	-0.007091044
62	0x3d6772e7	0.056506064
63	0x3c710c2e	0.0147123765

conv2.weight f4 [64, 64, 3]
0	0x3d0fe523	0.03513063
1	0x3d47a484	0.04874088
2	0xbd68226c	-0.056673452
3	0x3c93de65	0.018050382
4	0xbd9c0163	-0.07617452
5	0xbdff94af	-0.12479531
6	0xbd03b74e	-0.032157235
7	0x3c90f8cd	0.017696762
8	0xbcb1967c	-0.021678202
9	0x3b5f246a	0.0034048804
10	0x3d90a09b	0.07061883
11	0x3d16d2e5	0.03682222
12	0x38808b40	6.129453e-05
13	0xbdc90bf7	-0.09816735
14	0x3dac4c98	0.084130466
15	0xbe42f5a1	-0.19039012
16	0x3c4894ba	0.01224249
17	0x3daa5593	0.08317103
18	0x391840fc	0.00014520058
19	0x3d4d89a3	0.05018009
20	0x3d0d9a36	0.034570895
21	0xbcbcd1b6	-0.023049217
22	0xbcc8d39b	-0.024514964
23	0xbda58793	-0.08082499
24	0xbd055f93	-0.03256185
25	0x3cc1c6de	0.023654398
26	0x3d54c05a	0.051941253
27	0xbd99c29f	-0.07507824
28	0xbd3dbed7	-0.046324577
29	0xbe017944	-0.12643915
30	0x3b11de87	0.002225788
31	0xbcc899be	-0.024487372
32	0x3d1473f7	0.036243405
33	0x3d8b8a6d	0.06813512
34	0x3c17fbe8	0.009276368
35	0xbdce0117	-0.100588016
36	0xbce2acb5	-0.027670244
37	0x3d230294	0.03979738
38	0x3b31ead5	0.0027148027
39	0x3cc8625e	0.024460968
40	0xbe08ff37	-0.13378607
41	0x3bd0b2b1	0.006368958
42	0x3d073b43	0.0330155
43	0xbe033cc0	-0.12816143
44	0x3d2ca080	0.042145252
45	0xbe115b65	-0.1419502
46	0x3c460c51	0.012087897
47	0xbc82a62b	-0.015948376
48	0x3d843d9a	0.06457062
49	0xbd17c8b6	-0.037056647
50	0xbc8cd430	-0.017191023
51	0xbe003bff	-0.12522887
52	0x3cf8209e	0.03028899
53	0x3d202181	0.03909445
54	0x3b8350eb	0.004007449
55	0x3c8d426c	0.017243586
56	0xbd5fdcbc	-0.054653868
57	0xbda9fb56	-0.08299892
58	0xbdc23b40	-0.09483957
59	0xbcbd09d5	-0.023075977
60	0xbd6c8664	-0.057745352
61	0x3d01fd1b	0.03173552
62	0x3ca6cf43	0.020362502
63	0xbd7f5084	-0.062332645
64	0x3d23c0f7	0.039978947
65	0xbd7116a3	-0.05885948
66	0xbd84e1cb	-0.06488379
67	0xbac3c377	-0.0014935572
68	0xbd60687e	-0.05478715
69	0xbdf8ae7c	-0.12142655
70	0xbd1faeb7	-0.03898498
71	0xbdce50fa	-0.10074039
72	0xbdf8b817	-0.12144487
73	0x3c73b6c8	0.014875121
74	0x3ce83fde	0.028350767
75	0xbc519f97	-0.012794397
76	0xbc244c46	-0.010027951
77	0xbd10938b	-0.035296958
78	0xbcbb4d54	-0.022864021
79	0x3d7b7706	0.061392806
80	0xbdbcded7	-0.09222191
81	0xbd1e721a	-0.038683034
82	0x3d9a4fb2	0.07534732
83	0xbd176563	-0.036961924
84	0xbc04a146	-0.008095091
85	0x3bdaa1ff	0.0066721435
86	0x3db14de8	0.086574376
87	0xbcb01e55	-0.021498838
88	0xbc9e11c8	-0.019295588
89	0x3dbdcc3f	0.092674725
90	0x3df61cc2	0.12017204
91	0x3cdb201a	0.026748706
92	0x3ca538a3	0.020168608
93	0x3d573fe7	0.052551176
94	0xbdba60b7	-0.09100478
95	0xbd56b3c1	-0.05241752
96	0xbc702012	-0.014656084
97	0xbcd7a47c	-0.02632355
98	0xbcbdddf4	-0.023177125
99	0xbd15b5c1	-0.036550287
100	0xbd194583	-0.037419807
101	0xbdbb8eb4	-0.09158078
102	0x3d6ef0f8	0.058335274
103	0xbda34a2b	-0.07973131
104	0xbd4b6fa9	-0.049667034
105	0xbbc0ff83	-0.0058898344
106	0x3d4fa593	0.050695013
107	0x3da0d32d	0.078527786
108	0x3c5d5506	0.013509041
109	0xbd43f18d	-0.047837783
110	0xbcc0a2e5	-0.023515174
111	0xbdd9553e	-0.10611962
112	0xbd4d900d	-0.050186206
113	0xbd51fb86	-0.051265262
114	0x3cffcd61	0.031225862
115	0xbcd7d83d	-0.026348228
116	0xbe0c7b1a	-0.13718835
117	0x3c2cde97	0.010551116
118	0xbd699f26	-0.05703654
119	0xbd43be39	-0.047788832
120	0xbd8c5d24	-0.06853703
121	0xbd90616e	-0.07049833
122	0xbd29607e	-0.041351788
123	0x3e0684e9	0.13136639
124	0x3d2e1367	0.042498972
125	0xbd60fbae	-0.05492752
126	0x3c9a037a	0.018800486
127	0x3c43ac8e	0.011942996
128	0x3d94ee48	0.07272011
129	0xbda81da6	-0.0820878
130	0xbdc26b14	-0.0949308
131	0xbc79f59a	-0.01525631
132	0xbbe49952	-0.006976285
133	0xbd47e960	-0.048806548
134	0xbe0356c6	-0.1282607
135	0x3c0d8ff6	0.00864028
136	0x3d45e433	0.04831333
137	0xbc83faaf	-0.016110746
138	0xbd0b975a	-0.034079887
139	0x3d303070	0.043014944
140	0xbd3d7c16	-0.046260916
141	0x3dcc8b99	0.09987564
142	0x3e0ee56b	0.13954704
143	0x3e218dde	0.15776774
144	0x3caa5718	0.020793483
145	0xbd7b8295	-0.06140383
146	0x3c97c279	0.018525349
147	0xbe2b5568	-0.16731799
148	0x3dc660b1	0.09686411
149	0x3c82d4a9	0.015970545
150	0x3dcf426a	0.10120089
151	0x3c2e1536	0.010625174
152	0xbd931294	-0.07181278
153	0xbde91588	-0.1138106
154	0x3d24611f	0.040131684
155	0xbc8b6fa5	-0.01702101
156	0x3d9ab093	0.0755321
157	0xbdc1e833	-0.094681166
158	0xbd6b1743	-0.05739523
159	0xbd7605c6	-0.0600641
160	0x3da67fbe	0.08129834
161	0x3da596ae	0.080853805
162	0xbb9bc5bb	-0.004753796
163	0xbd806e9c	-0.06271097
164	0x3dfa3968	0.122179806
165	0xbd2207ef	-0.039558347
166	0x3d2406c2	0.040045507
167	0x3d27c0f1	0.040955488
168	0xbd832321	-0.06403185
169	0xbcd78e4f	-0.026312975
170	0xbbd718ed	-0.0065642507
171	0x3d38406f	0.044983324
172	0xbe0a0c8e	-0.13481352
173	0x3c793eab	0.015212695
174	0x3d35ce2e	0.04438608
175	0x3c1eb1ed	0.0096859755
176	0x3cfa1718	0.03052859
177	0xbc860b19	-0.016362714
178	0x3d6d02fa	0.057864167
179	0xbc9fc459	-0.019502806
180	0xbd9d5c0f	-0.076835744
181	0x3d1a01d7	0.03759941
182	0x3d110762	0.03540743
183	0xbd38cb7b	-0.04511593
184	0x3d1be73c	0.03806232
185	0xbdc1ddf5	-0.09466163
186	0xbd29aa56	-0.04142221
187	0x3c55bb37	0.013045124
188	0x3e098a7c	0.13431734
189	0x3d956140	0.072939396
190	0xbdf8ddec	-0.12151703
191	0x3d143a9f	0.036188718
192	0xbdefd56b	-0.11710628
193	0x3c9357bb	0.01798617
194	0x3daa8e31	0.08327902
195	0xbdc18f40	-0.09451151
196	0x3d4e6d65	0.050397296
197	0xbd0348ae	-0.032051735
198	0xbbb6a36f	-0.005573682
199	0xbd3f5321	-0.046710137
200	0xb9db901a	-0.000418783
201	0x3cb24ccf	0.02176514
202	0x3bfd5ad5	0.0077317753
203	0xbc1637c7	-0.009168572
204	0x3d243a26	0.040094517
205	0xbc55091c	-0.01300266
206	0x3db2ce2f	0.08730733
207	0xbdfd812a	-0.12378152
208	0xbda6d813	-0.08146682
209	0x3d3fe796	0.046851717
210	0xbce7c670	-0.028292865
211	0x3d8de99f	0.06929325
212	0xbb9e1a31	-0.0048248996
213	0x3d88f374	0.0668706
214	0xbd3defc6	-0.046371244
215	0xbd579470	-0.052631795
216	0xbdd2a575	-0.10285465
217	0xbd9af886	-0.07566933
218	0x3d026a25	0.03183951
219	0xbe28c18b	-0.16480081
220	0x3c469421	0.012120278
221	0x3ca8a405	0.020586023
222	0x3c9040c9	0.017609017
223	0x3c6800fa	0.014160389
224	0x3cfc1c70	0.030775279
225	0x3d35ba5a	0.04436717
226	0x3d8e3404	0.06943515
227	0xbd43c8ae	-0.047798805
228	0x3d3248f2	0.043526597
229	0x3b8789c8	0.004136298
230	0x3d49a282	0.049227245
231	0xbe01bd65	-0.12669905
232	0xbcb3b804	-0.021938331
233	0xbcd9937f	-0.02655959
234	0xbda7d0a8	-0.08194095
235	0x3ae910be	0.0017781479
236	0xbc5a9056	-0.013340076
237	0x3dbc819e	0.0920441
238	0xbd03d6a5	-0.032187123
239	0x3d2aacd3	0.041668724
240	0x3ca915ad	0.020640219
241	0xbd71d35a	-0.05903945
242	0x3d18b1cf	0.037278946
243	0xbe19fd46	-0.15038022
244	0x3db1ae71	0.0867585
245	0xbd406ac7	-0.04697683
246	0x3db3e19d	0.08783267
247	0xbd22b74b	-0.039725583
248	0x3cbd0600	0.02307415
249	0x3d2b46c5	0.041815538
250	0xbc83c5e0	-0.016085565
251	0xbd6eda2c	-0.058313534
252	0x3c37185e	0.011175243
253	0xbdf2561c	-0.1183283
254	0x3dcab03b	0.098968945
255	0xbd8a05bb	-0.06739374

conv2.bias f4 [64]
0	0xbbd561fa	-0.006511924
1	0x3ccd23e7	0.025041534
2	0xbd270f3b	-0.04078601
3	0x3d65986a	0.056053557
4	0xbd45ec0a	-0.048320808
5	0x3c59c7da	0.013292277
6	0x3d5814b6	0.052754126
7	0x3b499227	0.003075728
8	0x3d4450a5	0.04792847
9	0x3d0ad0e9	0.03389064
10	0xba523bf6	-0.0008019799
11	0xbd3729e0	-0.04471767
12	0x3caa685a	0.020801712
13	0xbd85cde5	-0.06533412
14	0xbd58a0d4	-0.052887753
15	0xbbb224ec	-0.0054365303
16	0xbce3f268	-0.02782555
17	0xbda9ab17	-0.08284586
18	0x3c2419b8	0.010015897
19	0x3cb19b99	0.02168064
20	0xba8c2a62	-0.0010693783
21	0x3ca3d084	0.019996889
22	0xbd1054ae	-0.035237007
23	0xbb93df70	-0.00451272
24	0x3cfa9edd	0.03059333
25	0xbd463278	-0.048387975
26	0xbd2a8bb0	-0.041637123
27	0x3d2a08eb	0.04151241
28	0xbd066a0b	-0.032815974
29	0xbccffdb6	-0.025389533
30	0x3d0b4de6	0.034009837
31	0x3b300718	0.0026859697
32	0x3d4af9b2	0.049554534
33	0xbd8cfba9	-0.06883938
34	0xbb4f70aa	-0.0031652846
35	0x3d25871d	0.040412057
36	0xbc355c0c	-0.011069309
37	0xbdb51ee0	-0.088437796
38	0xbcd39e0c	-0.025832199
39	0x3b98117a	0.0046407552
40	0x3d35500b	0.044265788
41	0xbcecffd8	-0.02893059
42	0xbd9c63c3	-0.076362155
43	0xbd76d4f4	-0.06026168
44	0x3ce1578f	0.027507572
45	0xbd350848	-0.04419735
46	0x3c48550a	0.012227306
47	0xbd601808	-0.054710418
48	0x3c1437ce	0.009046508
49	0xbda3441c	-0.07971975
50	0xbd11ad9b	-0.035565954
51	0xbd20fccc	-0.039303586
52	0xbd949bac	-0.072562546
53	0x3ae2fe49	0.0017318215
54	0x3c818357	0.015809698
55	0xbd7ef7f6	-0.062248193
56	0xbdbb6ea7	-0.09151965
57	0xbbd04eca	-0.0063570486
58	0xbbcded4d	-0.006284392
59	0x3d60a8ea	0.05484859
60	0x3c1b76de	0.009488789
61	0x3d162861	0.036659602
62	0x3c518052	0.012786942
63	0xbcd1eb35	-0.02562485

fc1.weight f4 [32, 64]
0	0xbdfc2d03	-0.12313273
1	0xbe03adf1	-0.12859322
2	0xbc4191b5	-0.011814524
3	0xbd899604	-0.06718066
4	0x3d99db19	0.07512493
5	0x3b27e3ef	0.0025618037
6	0xbe03f2ef	-0.1288564
7	0x3dba1df1	0.09087742
8	0xbdc33ce2	-0.09533097
9	0x3dca355f	0.09873461
10	0x3def154a	0.116739824
11	0xbdb40d22	-0.087915674
12	0x3d9af9cd	0.07567177
13	0xbdd8a698	-0.1057865
14	0x3c9a4642	0.01883233
15	0x3e25f8f4	0.1620825
16	0xbe0ebce7	-0.13939248
17	0xbd999b7f	-0.07500362
18	0xbc387d64	-0.011260364
19	0xbcced901	-0.02524996
20	0x3c4bc941	0.012438119
21	0xbcd918b5	-0.026501039
22	0xbcf95d31	-0.030439945
23	0x3df8cc47	0.12148338
24	0xbe1bfb5a	-0.15232602
25	0x3db2d94d	0.08732853
26	0xbd1274e2	-0.035756
27	0xbe26b0ab	-0.16278331
28	0xbe2bbe2b	-0.16771762
29	0xbd444d31	-0.047925178
30	0xbb20a75a	-0.0024513812
31	0xbe23cac7	-0.15995322
32	0xbe373aa6	-0.17893466
33	0xbe311aab	-0.1729533
34	0x3d5adff2	0.053436227
35	0xbe1c60e8	-0.15271342
36	0xbe08ba1a	-0.13352242
37	0x3dc6e4cb	0.097116075
38	0x3d23c7bb	0.0399854
39	0x3dfe6cd7	0.12423103
40	0xbe2a03e8	-0.16603053
41	0xbd86651b	-0.06562253
42	0xbb2bf60e	-0.002623919
43	0x3d31bbbf	0.04339194
44	0x3de17e5d	0.1101043
45	0xbdf51f01	-0.11968804
46	0xbde8e5b3	-0.11371937
47	0x3e0d7082	0.1381245
48	0x3d668458	0.056278557
49	0x3dfca74f	0.12336599
50	0x3e0ae410	0.13563561
51	0x3de119fb	0.109912835
52	0x3d95ef73	0.07321062
53	0xbded73db	-0.11594363
54	0x3de95ec6	0.1139503
55	0xbde5d097	-0.11221426
56	0x3d2aa1c3	0.041658174
57	0xba0c3f98	-0.00053500524
58	0xbcdbe975	-0.02684472
59	0xbd8be1c6	-0.06830172
60	0xbd4070b6	-0.04698249
61	0xbde635a0	-0.11240697
62	0x3df43fe2	0.11926247
63	0x3d25f309	0.04051498
64	0x3dcdf5e0	0.100566626
65	0x3d4832fb	0.048876744
66	0xbdd78f64	-0.105253965
67	0x3e2898d5	0.16464551
68	0x3d22e68d	0.03977065
69	0xbde793f3	-0.11307516
70	0x3e330148	0.17480958
71	0x3d8beac5	0.06831888
72	0xbdbf6343	-0.093451045
73	0xbd107022	-0.03526319
74	0x3db357b6	0.08756964
75	0x3d90f724	0.07078388
76	0xbdc3c778	-0.0955953
77	0x3dd86568	0.10566217
78	0x3b50d00e	0.0031862292
79	0xbc4fa084	-0.012672547
80	0xbda54f04	-0.08071712
81	0xbd613408	-0.05498126
82	0x3d958f6a	0.07302745
83	0x3e041a26	0.129006
84	0x3e1aed70	0.15129638
85	0xbc6965f2	-0.014245497
86	0xbd108255	-0.035280544
87	0xbd8645aa	-0.06556256
88	0x3d936eb8	0.07198852
89	0xbdbe7fad	-0.09301696
90	0xbdbf5053	-0.093414925
91	0xbdcdfb3a	-0.10057683
92	0x3d84123d	0.06448791
93	0x3ddbd3cc	0.107337564
94	0x3e1161a8	0.14197409
95	0x3e0664e2	0.13124421
96	0x3d9c60f2	0.07635678
97	0x3e0179a2	0.12644055
98	0xbb816f72	-0.003950053
99	0x3e085061	0.13311912
100	0x3e4ac9c4	0.1980353
101	0x3da29a40	0.07939577
102	0x3d12c5c1	0.035833124
103	0xbd9033d1	-0.07041133
104	0x3e21ed31	0.15813138
105	0xbd874004	-0.06604007
106	0x3de2b499	0.110696025
107	0x3db9135d	0.090368964
108	0xbd48e3cb	-0.049045365
109	0x3e0f19db	0.13974707
110	0x3d6d5d6f	0.057950433
111	0x3caa9894	0.020824708
112	0xbe01cc03	-0.1267548
113	0xbdcc0901	-0.09962655
114	0xbc25ed52	-0.010127382
115	0x3d091f2f	0.033477005
116	0xbdee067a	-0.11622329
117	0x3ddf77f6	0.109115526
118	0xbd7f8344	-0.062381044
119	0x3dec00e3	0.11523607
120	0x3e19a323	0.15003638
121	0xbdb757da	-0.08952303
122	0x3dd4175e	0.103560194
123	0x3dd5e4ed	0.10444055
124	0xbcda7d77	-0.026671154
125	0x3ddd8743	0.10816815
126	0xbc800898	-0.015629098
127	0xbd429553	-0.047505688
128	0xbdbc8dac	-0.09206709
129	0xbdcd130e	-0.100134
130	0xbd81c4cb	-0.063363634
131	0x3d0a453e	0.03375744
132	0xbdf7427a	-0.12073226
133	0x3e0d49a1	0.13797618
134	0xbe8a5609	-0.27018765
135	0x3e345f66	0.17614517
136	0x3dc1e887	0.09468179
137	0x3da022b6	0.078191206
138	0x3d0d74d9	0.034535263
139	0xbe4d124e	-0.20026514
140	0x3d07db89	0.03316835
141	0xbe3de5d3	-0.18544702
142	0x3c434f3a	0.011920745
143	0x3e49e6f3	0.19717006
144	0xbe244637	-0.1604241
145	0x3c40f5ca	0.011777351
146	0xbb3e888a	-0.0029073083
147	0x3b015e90	0.0019740202
148	0xbc861c73	-0.016370988
149	0x3b8be1d1	0.004268863
150	0x3d511a74	0.05105062
151	0x3db1766a	0.08665164
152	0xbe1fba70	-0.15598464
153	0x3d8a455b	0.0675151
154	0x3d6536bb	0.0559604
155	0xbd4bf4eb	-0.04979412
156	0xbe44c05e	-0.19214007
157	0xbc0e7f41	-0.008697332
158	0x3d77e76f	0.060523447
159	0x3c6b3068	0.014354803
160	0xbdd9cae8	-0.106344044
161	0xbe070e7d	-0.1318912
162	0x3d3cec26	0.046123646
163	0xbe10e3c2	-0.14149383
164	0x3d181035	0.03712483
165	0xbc7ec5bb	-0.015550072
166	0xbd821ed6	-0.06353538
167	0x3b764d93	0.003758286
168	0xbab4950c	-0.001377733
169	0x3dcf8ed7	0.101346664
170	0x3df27d70	0.118403316
171	0x3def5594	0.116862446
172	0x3e2932d7	0.165233
173	0xbdedaa1b	-0.11604711
174	0xbd7e2054	-0.06204255
175	0x3d906f45	0.07052473
176	0xbdb62d55	-0.08895365
177	0x3e21e788	0.15810978
178	0x3e0d202d	0.13781805
179	0x3db28cef	0.08718287
180	0x3e10506c	0.14093179
181	0xbd6dcd2d	-0.058057
182	0x3e3fd7dc	0.18734688
183	0xbd35600e	-0.044281058
184	0xbe3f8e25	-0.18706568
185	0xbcfe26c6	-0.031024348
186	0x3d4ddd5c	0.050259933
187	0x3dd08ad1	0.10182727
188	0x3ccf5a87	0.025311721
189	0x3d1eee5b	0.038801532
190	0xbd0b9262	-0.03407515
191	0x3d3b0cc8	0.045666486
192	0xbe06616d	-0.13123102
193	0xbdc308e4	-0.0952318
194	0x3c4b38e5	0.012403701
195	0xbda8bf04	-0.08239558
196	0x3da51baa	0.08061917
197	0x3de30d5b	0.11086532
198	0x3d049711	0.03237063
199	0x3bd5cb96	0.0065245135
200	0xbde4374b	-0.11143359
201	0x3dc22fae	0.094817504
202	0x3ddcb941	0.10777522
203	0xbe43f0ef	-0.19134878
204	0x3d482716	0.0488654
205	0xbe011a98	-0.12607801
206	0x3aa8b43b	0.0012871096
207	0x3d9b9a0f	0.07597744
208	0xbd57e45f	-0.052708026
209	0x3d8384cf	0.064218156
210	0xbddb37c8	-0.10703999
211	0xbd3ce17e	-0.046113484
212	0x3a6948ba	0.0008899082
213	0x3c0c0999	0.00854721
214	0xbd6ecb7c	-0.058299527
215	0x3e143505	0.1447335
216	0xbdd3d749	-0.10343797
217	0x3e128403	0.14308171
218	0x3e46d6dc	0.194179
219	0xbdc7550f	-0.097330205
220	0xbe03c05e	-0.12866351
221	0xbd9eafca	-0.07748373
222	0xbe3c6276	-0.18396935
223	0x3c98edbc	0.018668048
224	0xbdc90e83	-0.09817221
225	0xbe006261	-0.12537529
226	0x3dad43c6	0.084601924
227	0xbe03e559	-0.12880458
228	0xbe1d503d	-0.1536264
229	0x3dbf6c8e	0.09346877
230	0x3d432b78	0.047648877
231	0x3d72b8b8	0.059258193
232	0xbe4cc922	-0.19998601
233	0x3dc6a608	0.09699637
234	0xbb9e3ccd	-0.0048290254
235	0x3dfc4810	0.12318432
236	0x3d2077d6	0.039176784
237	0x3ccf2ddc	0.025290422
238	0x3cef8372	0.029237483
239	0x3de6e484	0.11274055
240	0xbd0b97a6	-0.03408017
241	0x3e0938a9	0.1340052
242	0x3ddb86df	0.10719084
243	0x3d3e290f	0.046425875
244	0x3df71974	0.12065402
245	0xbdf4eeeb	-0.119596325
246	0x3e27e300	0.16395187
247	0x3ba9ff39	0.0051878956
248	0x3d12a24e	0.035799317
249	0x3e0e0419	0.1386875
250	0x3c78a288	0.015175469
251	0xbdfc44a2	-0.12317778
252	0x3d71dc1c	0.059047803
253	0x3d281b84	0.041041866
254	0xbdd1ea4d	-0.102497675
255	0xbc9e7017	-0.019340558

fc1.bias f4 [32]
0	0x3cbe4887	0.023227943
1	0xbb2c2219	-0.002626544
2	0x3caa2e5f	0.020774065
3	0x3aa78c82	0.0012782963
4	0x3d8c7761	0.06858707
5	0x3d6e49b3	0.058175754
6	0xbd8cc069	-0.06872637
7	0x3d66260a	0.05618862
8	0x3d6d49b7	0.057931628
9	0xbdff10e3	-0.12454393
10	0xbd9f385f	-0.07774424
11	0xbe073e56	-0.13207373
12	0xbacba221	-0.0015535989
13	0xbd67f67d	-0.056631554
14	0xbdb27ccc	-0.08715209
15	0xbc4a55a1	-0.012349517
16	0xbdbc1530	-0.09183729
17	0xb8ee2d80	-0.000113571994
18	0xbc6a630b	-0.01430584
19	0x3e1f9022	0.15582326
20	0xbc918688	-0.017764345
21	0x3ce3718b	0.027764102
22	0x3e0821ff	0.13294218
23	0x3df9cb5c	0.12196991
24	0xbda16af4	-0.07881728
25	0xbcb1cb2a	-0.021703321
26	0xbc6c800b	-0.014434825
27	0xbd430dc4	-0.04762055
28	0xbd10c601	-0.03534508
29	0x3da3bc1a	0.07994862
30	0x3e03aefa	0.12859717
31	0xbdff8d1e	-0.12478088

fc2.weight f4 [2, 32]
0	0x3e1dee64	0.1542297
1	0xbe817ea8	-0.25291944
2	0x3dbde5d0	0.09272349
3	0x3e4e719a	0.20160523
4	0xbe1e2a81	-0.15445901
5	0xbc4e58ca	-0.012594411
6	0x3e37633a	0.17908946
7	0xbe3598a5	-0.1773401
8	0xbe5581ce	-0.20850298
9	0x3ddf9877	0.10917752
10	0xbe1babc3	-0.1520224
11	0xbde0a03e	-0.10968064
12	0xbe7e37b3	-0.24825935
13	0xbe518aab	-0.20463054
14	0x3e6450a1	0.22296382
15	0xbe38acaa	-0.18034616
16	0xbddf4c14	-0.109031826
17	0xbdf6b114	-0.12045494
18	0xbe0d6299	-0.13807143
19	0xbcc4d1bb	-0.024025789
20	0xbe38bd01	-0.1804085
21	0xbe70ea8a	-0.2352697
22	0xbe8bd0bd	-0.27307692
23	0x3e2b1803	0.16708378
24	0xbe8cecb0	-0.27524328
25	0xbe4fd41a	-0.20295754
26	0xbe43fec1	-0.1914015
27	0x3df95cf5	0.12175933
28	0x3dc2a84c	0.09504756
29	0xbd098fae	-0.03358429
30	0xbe7ada2c	-0.24497288
31	0xbd823df4	-0.06359473
32	0xbe6585d2	-0.2241433
33	0x3e488f9e	0.19586036
34	0xbe3bcd58	-0.18340051
35	0x3cfd6343	0.03093112
36	0x3ddb7696	0.10715978
37	0xbdea18ff	-0.11430549
38	0xbe021e62	-0.12706903
39	0x3cfc1219	0.030770348
40	0x3ce1f1bd	0.02758109
41	0x3e0b0d76	0.13579354
42	0x3ddf9ee7	0.1091898
43	0xbe105930	-0.14096522
44	0x3d426342	0.04745794
45	0x3d4a0ec8	0.049330503
46	0xbe266203	-0.16248326
47	0x3d511ceb	0.05105297
48	0xbd04ed6a	-0.03245298
49	0x3ddf3f60	0.1090076
50	0x3e45e048	0.19323838
51	0xbe623692	-0.2209113
52	0x3df1d45a	0.11808081
53	0xbd9a9f35	-0.075498976
54	0x3c3e405b	0.011612023
55	0x3cc4362b	0.02395161
56	0xbbe0d03e	-0.006860762
57	0x3e863888	0.26215005
58	0x3e140d3f	0.14458178
59	0xbe044098	-0.12915266
60	0xbe390cd7	-0.18071304
61	0x3e3a96ef	0.18221639
62	0x3ce92ffa	0.02846526
63	0xbd70a19b	-0.05874787

fc2.bias f4 [2]
0	0x3e3a006e	0.18164226
1	0x3d1f3522	0.03886903
