cs_binary/Models/text_classifier_domain.onnx (onnx, 13197 bytes, 5 tensors)

conv1.bias f4 [64]
-0.040308617 -0.027529871 -0.052406587 0.013896258 -0.081496336 0.023057172 0.068195775 0.06999753
0.051591508 -0.08130552 0.02121251 0.03731276 0.024288185 0.0791706 0.050769176 0.08805677
-0.01865927 -0.099521026 0.052279968 0.016746733 0.026100287 0.09075217 -0.05683129 -0.021536019
0.058778547 0.010079546 -0.14175792 0.07259701 0.07850742 0.07588281 -0.04389211 0.0101812845
0.0100524165 -0.037853938 -0.12716842 0.004390714 0.0607939 -0.071297616 0.053439673 0.033498157
0.04237081 -0.09504883 0.00082149374 -0.025104593 0.09140963 0.03660497 0.007611981 -0.047249313
-0.077196896 -0.0004231903 -0.033502527 0.0029389865 -0.007476069 -0.06320923 -0.035303824 0.052448094
0.011184885 -0.08529764 0.05369667 -0.034702033 -0.0009152329 -0.007091044 0.056506064 0.0147123765
00000000: a61a 25bd 5386 e1bc 4aa8 56bd 21ad 633c
00000010: 8de7 a6bd 65e2 bc3c 3aaa 8b3d dd5a 8f3d
00000020: 9e51 533d 8283 a6bd dcc5 ad3c 44d5 183d
00000030: 04f8 c63c 3224 a23d 57f3 4f3d 1c57 b43d
00000040: 53db 98bc aed1 cbbd 8523 563d 7230 893c
00000050: 45d0 d53c 46dc b93d edc7 68bd 4e6c b0bc
00000060: c6c1 703d ae24 253c fd28 11be bead 943d
00000070: 80c8 a03d 7268 9b3d 37c8 33bd 67cf 263c
00000080: e4b2 243c bb0c 1bbd 7038 02be fbdf 8f3b
00000090: 0603 793d 7c04 92bd 8fe3 5a3d 5d35 093d
000000a0: 048d 2d3d f6a8 c2bd 8359 573a 26a8 cdbc
000000b0: f934 bb3d 18ef 153d ed6d f93b 7f88 41bd
000000c0: 6819 9ebd a4df ddb9 f239 09bd 039c 403b
000000d0: d0f9 f4bb d773 81bd be9a 10bd d0d3 563d
000000e0: cf40 373c 87b0 aebd 0af1 5b3d b823 0ebd
000000f0: 3dec 6fba fd5b e8bb e772 673d 2e0c 713c

conv2.bias f4 [64]
-0.006511924 0.025041534 -0.04078601 0.056053557 -0.048320808 0.013292277 0.052754126 0.003075728
0.04792847 0.03389064 -0.0008019799 -0.04471767 0.020801712 -0.06533412 -0.052887753 -0.0054365303
-0.02782555 -0.08284586 0.010015897 0.02168064 -0.0010693783 0.019996889 -0.035237007 -0.00451272
0.03059333 -0.048387975 -0.041637123 0.04151241 -0.032815974 -0.025389533 0.034009837 0.0026859697
0.049554534 -0.06883938 -0.0031652846 0.040412057 -0.011069309 -0.088437796 -0.025832199 0.0046407552
0.044265788 -0.02893059 -0.076362155 -0.06026168 0.027507572 -0.04419735 0.012227306 -0.054710418
0.009046508 -0.07971975 -0.035565954 -0.039303586 -0.072562546 0.0017318215 0.015809698 -0.062248193
-0.09151965 -0.0063570486 -0.006284392 0.05484859 0.009488789 0.036659602 0.012786942 -0.02562485
00000000: fa61 d5bb e723 cd3c 3b0f 27bd 6a98 653d
00000010: 0aec 45bd dac7 593c b614 583d 2792 493b
00000020: a550 443d e9d0 0a3d f63b 52ba e029 37bd
00000030: 5a68 aa3c e5cd 85bd d4a0 58bd ec24 b2bb
00000040: 68f2 e3bc 17ab a9bd b819 243c 999b b13c
00000050: 622a 8cba 84d0 a33c ae54 10bd 70df 93bb
00000060: dd9e fa3c 7832 46bd b08b 2abd eb08 2a3d
00000070: 0b6a 06bd b6fd cfbc e64d 0b3d 1807 303b
00000080: b2f9 4a3d a9fb 8cbd aa70 4fbb 1d87 253d
00000090: 0c5c 35bc e01e b5bd 0c9e d3bc 7a11 983b
000000a0: 0b50 353d d8ff ecbc c363 9cbd f4d4 76bd
000000b0: 8f57 e13c 4808 35bd 0a55 483c 0818 60bd
000000c0: ce37 143c 1c44 a3bd 9bad 11bd ccfc 20bd
000000d0: ac9b 94bd 49fe e23a 5783 813c f6f7 7ebd
000000e0: a76e bbbd ca4e d0bb 4ded cdbb eaa8 603d
000000f0: de76 1b3c 6128 163d 5280 513c 35eb d1bc

fc1.bias f4 [32]
0.023227943 -0.002626544 0.020774065 0.0012782963 0.06858707 0.058175754 -0.06872637 0.05618862
0.057931628 -0.12454393 -0.07774424 -0.13207373 -0.0015535989 -0.056631554 -0.08715209 -0.012349517
-0.09183729 -0.000113571994 -0.01430584 0.15582326 -0.017764345 0.027764102 0.13294218 0.12196991
-0.07881728 -0.021703321 -0.014434825 -0.04762055 -0.03534508 0.07994862 0.12859717 -0.12478088
00000000: 8748 be3c 1922 2cbb 5f2e aa3c 828c a73a
00000010: 6177 8c3d b349 6e3d 69c0 8cbd 0a26 663d
00000020: b749 6d3d e310 ffbd 5f38 9fbd 563e 07be
00000030: 21a2 cbba 7df6 67bd cc7c b2bd a155 4abc
00000040: 3015 bcbd 802d eeb8 0b63 6abc 2290 1f3e
00000050: 8886 91bc 8b71 e33c ff21 083e 5ccb f93d
00000060: f46a a1bd 2acb b1bc 0b80 6cbc c40d 43bd
00000070: 01c6 10bd 1abc a33d faae 033e 1e8d ffbd

fc2.weight f4 [2, 32]
0.1542297 -0.25291944 0.09272349 0.20160523 -0.15445901 -0.012594411 0.17908946 -0.1773401
-0.20850298 0.10917752 -0.1520224 -0.10968064 -0.24825935 -0.20463054 0.22296382 -0.18034616
-0.109031826 -0.12045494 -0.13807143 -0.024025789 -0.1804085 -0.2352697 -0.27307692 0.16708378
-0.27524328 -0.20295754 -0.1914015 0.12175933 0.09504756 -0.03358429 -0.24497288 -0.06359473
-0.2241433 0.19586036 -0.18340051 0.03093112 0.10715978 -0.11430549 -0.12706903 0.030770348
0.02758109 0.13579354 0.1091898 -0.14096522 0.04745794 0.049330503 -0.16248326 0.05105297
-0.03245298 0.1090076 0.19323838 -0.2209113 0.11808081 -0.075498976 0.011612023 0.02395161
-0.006860762 0.26215005 0.14458178 -0.12915266 -0.18071304 0.18221639 0.02846526 -0.05874787
00000000: 64ee 1d3e a87e 81be d0e5 bd3d 9a71 4e3e
00000010: 812a 1ebe ca58 4ebc 3a63 373e a598 35be
00000020: ce81 55be 7798 df3d c3ab 1bbe 3ea0 e0bd
00000030: b337 7ebe ab8a 51be a150 643e aaac 38be
00000040: 144c dfbd 14b1 f6bd 9962 0dbe bbd1 c4bc
00000050: 01bd 38be 8aea 70be bdd0 8bbe 0318 2b3e
00000060: b0ec 8cbe 1ad4 4fbe c1fe 43be f55c f93d
00000070: 4ca8 c23d ae8f 09bd 2cda 7abe f43d 82bd
00000080: d285 65be 9e8f 483e 58cd 3bbe 4363 fd3c
00000090: 9676 db3d ff18 eabd 621e 02be 1912 fc3c
000000a0: bdf1 e13c 760d 0b3e e79e df3d 3059 10be
000000b0: 4263 423d c80e 4a3d 0362 26be eb1c 513d
000000c0: 6aed 04bd 603f df3d 48e0 453e 9236 62be
000000d0: 5ad4 f13d 359f 9abd 5b40 3e3c 2b36 c43c
000000e0: 3ed0 e0bb 8838 863e 3f0d 143e 9840 04be
000000f0: d70c 39be ef96 3a3e fa2f e93c 9ba1 70bd

fc2.bias f4 [2]
0.18164226 0.03886903
00000000: 6e00 3a3e 2235 1f3d
