localmodel/output/text_classifier.onnx (onnx, 59957 bytes, 4 tensors)

classifier.0.bias f4 [64]
0	0xbc7fa289	-0.015602716
1	0x3c60a333	0.013710785
2	0xbcbe0563	-0.023195928
3	0xbce31377	-0.027719242
4	0xbb8868fe	-0.0041629067
5	0xbce486cc	-0.027896307
6	0x3c71d369	0.014759877
7	0x3cebc9a9	0.028782682
8	0xbce5e0c1	-0.028061273
9	0x3cf1bbd9	0.029508518
10	0xbc998e6e	-0.018744674
11	0x3c313c6a	0.0108176265
12	0xbc7dc126	-0.015487945
13	0x3d162529	0.036656532
14	0xbd0582be	-0.03259539
15	0x3cac7b2f	0.021054832
16	0xbc61e3db	-0.013787235
17	0xbcba80c1	-0.022766473
18	0x3cb564e8	0.022142842
19	0x3c1e6de0	0.009669751
20	0x3c76a2c5	0.015053456
21	0xbcb1a240	-0.021683812
22	0x3d1a4061	0.037659053
23	0xbcb27868	-0.02178593
24	0xbc11e015	-0.008903523
25	0x3bc8d117	0.006128441
26	0x3cf9720d	0.030449891
27	0xbcacc021	-0.021087708
28	0xbc3d7ce2	-0.011565419
29	0x3c998b21	0.0187431
30	0xbc7bb6dd	-0.015363422
31	0x3d0ffd9b	0.035153966
32	0x3c06ced3	0.008228022
33	0x3c430b2d	0.01190452
34	0xbcb4c806	-0.022068035
35	0x3c898fc9	0.016792195
36	0x3b42e955	0.0029741128
37	0x3d0c181c	0.03420268
38	0xbc9058bb	-0.017620435
39	0x3d2161d2	0.03939993
40	0x3bb796f5	0.0056027123
41	0x3d0e6827	0.034767296
42	0x3d17d825	0.037071366
43	0x3ca1d272	0.019753668
44	0x3cbd7781	0.023128273
45	0xbc73cc53	-0.014880258
46	0x3c76d8db	0.015066351
47	0xbc685666	-0.014180755
48	0xbbdb4de2	-0.006692634
49	0xbd00cdf4	-0.031446412
50	0xbb67da04	-0.003537775
51	0xba057d3d	-0.00050922093
52	0xbc8f321e	-0.017479952
53	0x3ce99bf9	0.028516756
54	0x3c5f30aa	0.013622442
55	0xbd081951	-0.03322727
56	0x3c2edc26	0.010672605
57	0x3c6e3a18	0.014540218
58	0xbb113588	-0.0022157151
59	0xbb174d85	-0.0023086977
60	0xbc971619	-0.018443154
61	0x3beeb411	0.007284649
62	0x3d083366	0.033252142
63	0x3caed684	0.021342523

classifier.3.bias f4 [2]
0	0x3c39ae5b	0.0113330735
1	0xbd70e75e	-0.0588144

reason_classifier.0.bias f4 [64]
0	0xbb83d4b4	-0.004023159
1	0x3c303b60	0.010756344
2	0x3caf8b29	0.021428661
3	0x3cfe53e1	0.031045856
4	0xbca726f4	-0.020404316
5	0xbd07657b	-0.033055764
6	0x3cfa4677	0.030551178
7	0xbbd6a2f1	-0.006550186
8	0x3ce47a33	0.0278903
9	0x3c887ac2	0.016660098
10	0x3c928bf9	0.01788901
11	0xbc398f47	-0.011325664
12	0x3cca0c9b	0.024664214
13	0x3c225a52	0.009909229
14	0x3ce7ff49	0.028319972
15	0xbb1a83c4	-0.0023577074
16	0x3b206a62	0.0024477472
17	0xbd02d8f4	-0.031945184
18	0x3c82db1c	0.01597362
19	0x3c9202a7	0.01782353
20	0xbcdd64dd	-0.027025634
21	0xbca97846	-0.020687234
22	0x3d0f8999	0.035043333
23	0xbcfaa2e2	-0.030595247
24	0x3c1a6680	0.009423852
25	0x3c2cf34e	0.010556055
26	0x3c9f359a	0.019434739
27	0xbc338a1b	-0.01095822
28	0xbcf2df50	-0.0296475
29	0xbcb803a4	-0.022462673
30	0xbcdc98b8	-0.02692829
31	0xbc8bddc9	-0.017073529
32	0xbce9f91e	-0.028561171
33	0x3cda086c	0.026615344
34	0x3cbed138	0.023293123
35	0x3d009fc6	0.03140237
36	0x3c8ec55e	0.017428096
37	0xbcd62d62	-0.026144687
38	0x3cf336b2	0.029689167
39	0x3b61cace	0.0034453156
40	0xbca36f80	-0.019950628
41	0x3cb2be9f	0.02181941
42	0xbc6691ec	-0.014072876
43	0xbc62fb7a	-0.013853902
44	0x3bcce89b	0.0062533147
45	0xbc55fd7a	-0.013060922
46	0xbcd9276e	-0.02650806
47	0xbc13a0be	-0.009010492
48	0xbcd84c6c	-0.026403628
49	0x3b8d1552	0.00430552
50	0xbc7a90c0	-0.0152933
51	0x3c1ec27a	0.0096899215
52	0xbcc801d8	-0.024414942
53	0xbbb2d55d	-0.005457564
54	0xbcd05a91	-0.02543381
55	0x3b8de368	0.0043300875
56	0x3cb30537	0.021853073
57	0xbc4a5f65	-0.012351845
58	0xbb3864a5	-0.002813616
59	0xbc31e6ab	-0.010858218
60	0x3c02b2ec	0.007977229
61	0x3c22d09d	0.009937433
62	0xba7d1bfe	-0.0009655355
63	0x3cb5e4e3	0.022203868

reason_classifier.3.bias f4 [25]
0	0xbdd5d386	-0.104407355
1	0x3db080be	0.086183056
2	0xbcff4db7	-0.031164987
3	0xbd917dac	-0.07104048
4	0x3c837a06	0.016049396
5	0x3d41e9d9	0.047342155
6	0xbd60457d	-0.05475377
7	0xbd53ed9d	-0.051740278
8	0x3da23a02	0.0792122
9	0xbd957cc2	-0.07299186
10	0xbd815aca	-0.06316145
11	0xbd2bcd19	-0.041943643
12	0xbde78e40	-0.11306429
13	0xbd3d61ce	-0.046235852
14	0x3d235ce3	0.039883506
15	0xbc25f7a7	-0.010129846
16	0x3d6d8652	0.057989426
17	0xbbeda663	-0.007252501
18	0x3bcd0965	0.0062572234
19	0xbd227449	-0.03966168
20	0xbd171718	-0.03688726
21	0x3dad162e	0.08451496
22	0x3d3e89a0	0.04651797
23	0xbdd6988e	-0.10478316
24	0x3dd22fd0	0.10263026
